darts_logs/transformer/_model.pth.tar (torch, 630997 bytes, 307 tensors)

weight f4 [16, 1]
-0.25716138 -0.55878663 -0.7425804 -0.47246468 0.3459748 0.65276635 0.02664113 0.8673296
-0.5665059 0.7218462 0.90422726 -0.31408477 -0.18602884 -0.37528825 0.036749363 0.46885717
00000000: a8aa 83be a40c 0fbf c019 3ebf e4e6 f1be
00000010: 9c23 b13e b21b 273f 803e da3c 5009 5e3f
00000020: 8806 11bf eaca 383f 707b 673f b8cf a0be
00000030: 587e 3ebe c825 c0be 8086 163d 0c0e f03e

bias f4 [16]
0.49330044 -0.016185045 -0.81816125 0.20530641 -0.49065173 -0.96427476 -0.94546986 -0.18776989
-0.40313184 -0.8527187 -0.075276494 -0.39764905 -0.051656127 -0.18833113 -0.7937833 0.21475983
00000000: e091 fc3e 8096 84bc 0473 51bf d83b 523e
00000010: b436 fbbe b6da 76bf 500a 72bf c046 40be
00000020: 4c67 cebe c64b 5abf 902a 9abd a898 cbbe
00000030: 6095 53bd e0d9 40be 6235 4bbf 00ea 5b3e

in_proj_weight f4 [48, 16]
0.184196 0.21413633 -0.25262573 -0.0072166026 0.28938767 0.12770322 0.13385007 0.19363952
0.29841664 -0.13828789 -0.3045743 -0.2638448 0.037235916 -0.15539661 -0.23075359 -0.19052532
0.009709626 0.073004246 -0.2851447 -0.008472025 -0.21115825 0.10823807 0.03829062 -0.30400336
0.19757512 0.22034231 0.15738371 -0.2166027 0.2823468 0.108787775 -0.12845564 0.26702884
-0.057429373 0.21010432 -0.27472454 -0.05813791 0.12627214 0.28370395 -0.13257782 0.09060982
-0.040146798 -0.022772819 -0.18438733 -0.019841284 -0.16940573 0.044325262 0.18985596 0.061409116
-0.21051303 0.24572352 0.17464921 0.23712203 0.28045294 0.09729582 -0.20270398 -0.09768012
-0.28937143 -0.25509107 0.28513834 0.14688998 -0.13105656 -0.17537647 -0.009348869 0.24096617
-0.2984399 0.23556033 0.14638546 0.044897825 -0.20146134 0.25174847 -0.14147654 -0.21057522
0.280368 -0.14146122 0.044537216 0.2712359 0.137348 -0.12646258 0.023371786 -0.220697
0.27560166 0.15323123 0.1354211 -0.23123288 0.22125098 0.043702543 0.121480405 0.06455472
0.12375447 0.056118906 0.0722318 -0.04689163 0.13087568 -0.04984626 -0.11737715 0.217518
-0.10692261 -0.16381527 0.04134628 0.28237304 -0.046869755 0.20059094 0.045494318 -0.18322472
0.08917028 0.2830902 -0.2502106 0.26710507 -0.2457065 -0.17288978 -0.26889384 -0.28159288
-0.17071861 -0.25319803 -0.17021169 0.25690594 -0.26462504 0.2227036 0.12661862 -0.13795811
0.02990815 0.30178884 -0.22996634 0.060543925 0.07262483 0.18936467 -0.11772704 0.03515944
0.003983885 0.09269139 -0.0934407 0.18930155 0.2954102 0.13294834 0.18802136 0.26329294
0.02780512 -0.1687146 0.23014298 0.19459245 0.14074355 0.002544582 -0.08205901 -0.15458167
0.30126467 -0.14199291 0.1157971 0.29787412 -0.019440174 -0.07686798 -0.06576848 -0.09680952
-0.15746176 0.26491728 0.019733816 0.09868258 -0.25557482 0.29378155 -0.028103024 -0.26067775
0.049500436 -0.17372236 -0.16071531 0.30092075 0.0006624162 0.19893458 -0.21172732 -0.25340492
-0.10792519 -0.14631046 0.26394233 -0.10880835 -0.10560565 0.28343496 -0.15767838 -0.27107573
-0.16080163 -0.0593998 0.19678202 -0.17968935 -0.24898165 -0.21982548 0.27871153 -0.18362543
0.02611059 0.19651458 -0.017146915 0.16831723 -0.23037395 -0.0966564 0.24217054 0.21933046
0.07835698 0.2313306 -0.04542312 0.19316655 -0.16663657 -0.1987681 0.10636994 0.29299656
-0.08960478 -0.119241044 -0.046355188 0.003824234 -0.070789084 -0.005243182 -0.014185667 0.11164144
0.06246698 -0.2897845 -0.18189867 0.22091809 -0.2968587 0.09653887 0.22835729 -0.2857054
-0.1859541 -0.09011461 -0.20008498 -0.1342149 0.26427498 -0.29258654 0.21996143 -0.01806438
0.1318295 -0.06480895 -0.20410329 0.11776987 -0.026684314 -0.19984263 -0.11187993 0.046256423
0.04403907 0.25793788 0.052084386 -0.19867676 -0.2949842 -0.21286762 0.17331085 0.19338626
-0.06682968 -0.224233 -0.1671805 0.017826349 0.08124685 0.041471183 -0.062459037 -0.27607593
0.20499352 0.1456613 0.2065045 -0.1506135 0.14917961 -0.15342906 0.13327053 -0.25277436
00000000: e09d 3c3e 8e46 5b3e 2958 81be 4079 ecbb
00000010: 9f2a 943e a2c4 023e fe0f 093e 7049 463e
00000020: 11ca 983e 579b 0dbe 2af1 9bbe aa16 87be
00000030: b084 183d 4a20 1fbe ab4a 6cbe 1219 43be
00000040: 2015 1f3c 4083 953d 7cfe 91be 40ce 0abc
00000050: de39 58be ecab dd3d a0d6 1c3d 54a6 9bbe
00000060: 2251 4a3e 6aa1 613e 3229 213e 19cd 5dbe
00000070: c38f 903e 20cc de3d e089 03be 01b8 883e
00000080: 103b 6bbd 9625 573e b2a8 8cbe 0422 6ebd
00000090: 7c4d 013e a541 913e 7bc2 07be a491 b93d
000000a0: f870 24bd 108e babc 08d0 3cbe 308a a2bc
000000b0: b278 2dbe 688e 353d 9a69 423e 2088 7b3d
000000c0: ba90 57be f29e 7b3e 3ed7 323e 1ed0 723e
000000d0: 8797 8f3e 0843 c73d a291 4fbe 840c c8bd
000000e0: 7e28 94be 4c9b 82be a7fd 913e 546a 163e
000000f0: b133 06be e495 33be 002c 19bc d6bf 763e
00000100: 1dcd 98be ba36 713e 12e6 153e c8e6 373d
00000110: e24b 4ebe 2de5 803e 3adf 10be 08a1 57be
00000120: 658c 8f3e 36db 10be a86c 363d 6fdf 8a3e
00000130: f4a4 0c3e 687f 01be 3076 bf3c 65fe 61be
00000140: a91b 8d3e a6e8 1c3e d4ab 0a3e 50c8 6cbe
00000150: 9e8f 623e 7001 333d b8ca f83d 4435 843d
00000160: fc72 fd3d f0dc 653d 44ee 933d 7011 40bd
00000170: 4604 063e 982b 4cbd 6e63 f0bd 0abd 5e3e
00000180: 3efa dabd 31bf 27be b85a 293d 3393 903e
00000190: 80fa 3fbd b667 4d3e 4058 3a3d 439f 3bbe
000001a0: e89e b63d 33f1 903e 9b1b 80be ffc1 883e
000001b0: 7c9a 7bbe 050a 31be 74ac 89be f12c 90be
000001c0: dcd0 2ebe 2ca3 81be f94b 2ebe 2d89 833e
000001d0: ef7c 87be 6a0c 643e 50a8 013e e444 0dbe
000001e0: f001 f53c 1184 9a3e 4c7c 6bbe e8fc 773d
000001f0: 54bc 943d d0e8 413e e01a f1bd 5803 103d
00000200: 408b 823b fcd4 bd3d d65d bfbd 44d8 413e
00000210: 0140 973e 9c23 083e ac88 403e 55ce 863e
00000220: 90c7 e33c 85c3 2cbe 9aaa 6b3e 3e43 473e
00000230: 141f 103e 00c3 263b 8e0e a8bd a84a 1ebe
00000240: 5d3f 9a3e 9766 11be 0827 ed3d f582 983e
00000250: 0041 9fbc f66c 9dbd a0b1 86bd 1244 c6bd
00000260: a83d 21be 3da3 873e d0a8 a13c 181a ca3d
00000270: b4da 82be 896a 963e 5038 e6bc 8e77 85be
00000280: f8c0 4a3d 46e4 31be 8e92 24be 4912 9a3e
00000290: 00a6 2d3a 82b5 4b3e 0ccf 58be 4abe 81be
000002a0: e207 ddbd 69d2 15be 7323 873e ead6 debd
000002b0: c647 d8bd 631e 913e 7176 21be 70ca 8abe
000002c0: 2fa9 24be 344d 73bd 3a81 493e 7c00 38be
000002d0: 0cf5 7ebe ee19 61be 47b3 8e3e 4e08 3cbe
000002e0: e0e5 d53c 1e3b 493e b077 8cbc 5a5b 2c3e
000002f0: 26e7 6bbe caf3 c5bd 8efb 773e 2a98 603e
00000300: a079 a03d eee1 6c3e 980d 3abd 74cd 453e
00000310: c7a2 2abe dd89 4bbe 7cd8 d93d a503 963e
00000320: b682 b7bd a634 f4bd f0de 3dbd 00a0 7a3b
00000330: def9 90bd 00cf abbb 006b 68bc 44a4 e43d
00000340: 60dd 7f3d a25e 94be a543 3abe 5a38 623e
00000350: ddfd 97be 2cb6 c53d 7ed6 693e fa47 92be
00000360: c06a 3ebe 028e b8bd 14e3 4cbe a16f 09be
00000370: 0d4f 873e e7cd 95be 923d 613e c0fb 93bc
00000380: 50fe 063e 8eba 84bd 7400 51be 5431 f13d
00000390: 1099 dabc 8ca3 4cbe 4e21 e5bd 6077 3d3d
000003a0: 5062 343d 6f10 843e 7056 553d ec71 4bbe
000003b0: 2b08 97be f8f9 59be 6678 313e 0c07 463e
000003c0: 00de 88bd 569d 65be 5d31 2bbe 9008 923c
000003d0: c064 a63d b0dd 293d 0cd5 7fbd d359 8dbe
000003e0: d2e9 513e 3c28 153e ea75 533e 6d3a 1abe
000003f0: 8ac2 183e 821c 1dbe 1278 083e a46b 81be

in_proj_bias f4 [48]
0.0 0.0 0.0 0.0 0.0 0.0 0.0 0.0
0.0 0.0 0.0 0.0 0.0 0.0 0.0 0.0
0.0 0.0 0.0 0.0 0.0 0.0 0.0 0.0
0.0 0.0 0.0 0.0 0.0 0.0 0.0 0.0
0.0 0.0 0.0 0.0 0.0 0.0 0.0 0.0
0.0 0.0 0.0 0.0 0.0 0.0 0.0 0.0
00000000: 0000 0000 0000 0000 0000 0000 0000 0000
00000010: 0000 0000 0000 0000 0000 0000 0000 0000
00000020: 0000 0000 0000 0000 0000 0000 0000 0000
00000030: 0000 0000 0000 0000 0000 0000 0000 0000
00000040: 0000 0000 0000 0000 0000 0000 0000 0000
00000050: 0000 0000 0000 0000 0000 0000 0000 0000
00000060: 0000 0000 0000 0000 0000 0000 0000 0000
00000070: 0000 0000 0000 0000 0000 0000 0000 0000
00000080: 0000 0000 0000 0000 0000 0000 0000 0000
00000090: 0000 0000 0000 0000 0000 0000 0000 0000
000000a0: 0000 0000 0000 0000 0000 0000 0000 0000
000000b0: 0000 0000 0000 0000 0000 0000 0000 0000

weight f4 [16, 16]
-0.02424252 0.36600164 -0.3214808 0.16687658 0.24174276 0.24900433 -0.2667202 0.15048215
-0.15864393 0.41612658 -0.011752695 -0.0015648901 -0.37228552 0.2782531 -0.18805672 -0.1618329
-0.34155542 -0.12187639 0.19548419 0.09460464 -0.1819402 -0.08102161 -0.16068542 -0.40712994
0.10231474 -0.37917328 -0.17367661 -0.38765982 -0.4318225 0.36583176 0.262974 -0.28093126
0.034291267 -0.35606718 -0.26322368 -0.022783607 0.04932043 -0.25202486 -0.3958961 -0.29131353
-0.005733639 0.33124742 -0.02820465 0.14153501 0.38915554 0.22796842 0.32797083 -0.2446235
0.39495006 -0.27303416 0.08537194 0.08153406 -0.27704924 -0.23645085 0.20235679 0.084462196
0.32784048 -0.22342987 -0.1943991 0.07838687 0.015672028 0.20881525 -0.3626009 -0.21724673
-0.37486348 0.15844426 0.33535615 -0.37077513 -0.3942459 -0.16686475 -0.20002858 -0.32387054
0.008824855 0.3017868 -0.42852262 -0.37897155 0.23129919 -0.16233549 0.09701225 0.3783935
0.13847569 -0.0057014227 -0.22260784 -0.36171067 -0.28629827 0.32833073 -0.1821469 -0.29489076
0.18762079 -0.15356883 0.29192874 0.038698673 0.2539501 0.3294092 0.17211565 -0.09112728
-0.24848084 0.2376003 -0.25044593 -0.41232368 -0.03409335 -0.13628128 0.38996056 -0.3612238
0.117903024 -0.041497618 0.0015885234 -0.22217005 -0.19404 -0.21179223 -0.084869176 -0.23027879
0.37375715 0.26788083 0.34385934 0.096144944 0.30938533 -0.3169566 0.18540522 0.25647005
-0.23786046 0.1515725 0.1478602 -0.1314457 -0.057593495 0.02023521 -0.08894828 0.36767188
0.33507612 0.0451093 -0.012001872 -0.339124 0.42070982 0.24410215 0.42801544 -0.2297928
0.018966973 0.17946652 -0.35463884 -0.10818231 -0.12714908 0.27058408 0.11097404 0.10807297
0.013607979 0.2791033 -0.37851083 -0.28363818 0.39959624 0.15157548 -0.26091176 0.34431472
-0.2912909 -0.32169276 0.21649668 -0.3258904 -0.17727667 -0.17345506 0.39358947 0.20454451
-0.28107142 0.05158305 0.21407941 -0.24007322 0.05499813 -0.051789075 0.40737 0.33194938
0.12204632 0.26657978 0.10753068 0.11131123 0.3274952 0.31253836 0.13018408 -0.056943744
0.20844886 0.0687491 -0.0044347644 -0.3699385 0.061091512 -0.35075852 0.420599 -0.035696805
-0.24485171 -0.2401205 -0.12092242 0.18171576 -0.2988441 -0.21851645 0.041246206 -0.33555472
0.23839286 0.37245217 0.25316486 -0.26564842 0.37207225 0.095421106 -0.21743648 -0.3700093
-0.039220273 -0.23188679 0.26989928 0.10017356 0.38319096 -0.12985262 0.050372064 0.1277807
-0.06674123 0.42401132 -0.026805967 0.26087978 -0.06299728 -0.35261884 0.016159177 0.22496238
-0.32378817 -0.051317126 -0.3165321 0.11380133 -0.20766549 0.40563062 -0.08377725 0.41127285
0.18010327 0.23417911 -0.13372561 0.12423071 -0.35374367 -0.28782144 -0.34676242 0.25104377
-0.31664664 -0.0050726235 0.18835971 0.09518519 0.043603033 0.14444456 0.046028227 0.41719934
-0.17493737 0.40814748 0.040460587 -0.28464538 -0.31406614 0.23594913 -0.18504314 0.2864404
0.2509584 0.30895373 -0.3180731 0.38824823 0.205053 0.35841468 0.233767 -0.3244437
00000000: 4098 c6bc 9164 bb3e 2299 a4be b2e1 2a3e
00000010: 6a8b 773e fefa 7e3e 8d8f 88be fe17 1a3e
00000020: 8e73 22be 8b0e d53e 608e 40bc 001d cdba
00000030: 359c bebe 3177 8e3e f191 40be 86b7 25be
00000040: 5ae0 aebe 549a f9bd 022d 483e 14c0 c13d
00000050: 884e 3abe a8ee a5bd b88a 24be 5673 d0be
00000060: 648a d13d 0023 c2be 48d8 31be 597b c6be
00000070: d717 ddbe 4d4e bb3e 87a4 863e 39d6 8fbe
00000080: 0075 0c3d 704e b6be 41c5 86be b0a4 babc
00000090: 3804 4a3d 6709 81be e5b2 cabe 0c27 95be
000000a0: 40e1 bbbb 4399 a93e 700d e7bc 8eee 103e
000000b0: 653f c73e 8e70 693e cbeb a73e 957e 7abe
000000c0: e536 ca3e 22cb 8bbe 7cd7 ae3d 54fb a63d
000000d0: 66d9 8dbe 2c20 72be 9e36 4f3e 84fa ac3d
000000e0: b5da a73e cdca 64be 8f10 47be 4c89 a03d
000000f0: a062 803c aad3 553e d3a6 b9be ed75 5ebe
00000100: 1bee bfbe 363f 223e cdb3 ab3e 3dd6 bdbe
00000110: 99da c9be 98de 2abe 4bd4 4cbe 5cd2 a5be
00000120: 2096 103c cd83 9a3e 5167 dbbe 8f08 c2be
00000130: b2d9 6c3e 463b 26be 5cae c63d cbbc c13e
00000140: 92cc 0d3e 00d3 babb 4ff3 63be 2432 b9be
00000150: b095 92be f71a a83e b884 3abe ecfb 96be
00000160: aa1f 403e 2641 1dbe af77 953e 8082 1e3d
00000170: bf05 823e 53a8 a83e 163f 303e f0a0 babd
00000180: c371 7ebe 7e4d 733e 733a 80be 171c d3be
00000190: 78a5 0bbd 528d 0bbe e9a8 c73e 53f2 b8be
000001a0: 2477 f13d 68f9 29bd 0036 d03a 8c80 63be
000001b0: 6cb2 46be 10e0 58be e4cf adbd 34ce 6bbe
000001c0: 195d bf3e ad27 893e 550e b03e a4e7 c43d
000001d0: c167 9e3e 2348 a2be deda 3d3e 0b50 833e
000001e0: b191 73be d235 1b3e aa68 173e b499 06be
000001f0: 28e7 6bbd 50c4 a53c 842a b6bd 7d3f bc3e
00000200: 198f ab3e 88c4 383d 80a3 44bc a9a1 adbe
00000210: 4767 d73e eaf5 793e d724 db3e ce4e 6bbe
00000220: a060 9b3c 12c6 373e 3993 b5be b08e ddbd
00000230: 5e33 02be ff89 8a3e 5c46 e33d 5c55 dd3d
00000240: 00f4 5e3c a1e6 8e3e 2ccc c1be 0639 91be
00000250: e197 cc3e 9a36 1b3e 3a96 85be 054a b03e
00000260: 1524 95be eab4 a4be 4eb1 5d3e 1bdb a6be
00000270: 0488 35be 349e 31be 8f84 c93e 1e74 513e
00000280: 98e8 8fbe c048 533d a237 5b3e c1d5 75be
00000290: b845 613d c820 54bd cd92 d03e 45f5 a93e
000002a0: 6cf3 f93d 257d 883e 0c39 dc3d 24f7 e33d
000002b0: 73ad a73e 0705 a03e fa4e 053e d83d 69bd
000002c0: 9e73 553e 54cc 8c3d 8051 91bb 9468 bdbe
000002d0: 183b 7a3d 9f96 b3be c158 d73e d036 12bd
000002e0: 68ba 7abe 26e2 75be 2ca6 f7bd b213 3a3e
000002f0: 1802 99be c7c2 5fbe c8f1 283d d4cd abbe
00000300: 421d 743e 0db2 be3e d39e 813e 1203 88be
00000310: 4180 be3e 246c c33d aba7 5ebe dc71 bdbe
00000320: 70a5 20bd bb73 6dbe 3d30 8a3e cc27 cd3d
00000330: 9b31 c43e 16f8 04be f052 4e3d f2d8 023e
00000340: a0af 88bd 0318 d93e 3098 dbbc 0992 853e
00000350: b804 81bd 758a b4be 4060 843c 8a5c 663e
00000360: 90c7 a5be e831 52bd 7f10 a2be ac10 e93d
00000370: 43a6 54be d1ae cf3e 6893 abbd 5b92 d23e
00000380: fe6c 383e a6cc 6f3e 5eef 08be ac6c fe3d
00000390: e41d b5be 555d 93be d88a b1be cf88 803e
000003a0: 821f a2be 4038 a6bb 5ee1 403e 74f0 c23d
000003b0: 1899 323d 46e9 133e 1888 3c3d 279b d53e
000003c0: c822 33be b5f8 d03e 00ba 253d 0abd 91be
000003d0: 47cd a0be a69c 713e f37b 3dbe 51a8 923e
000003e0: 9f7d 803e 2f2f 9e3e 7ada a2be 79c8 c63e
000003f0: 6af9 513e 2182 b73e 9e60 6f3e 7c1d a6be

bias f4 [16]
0.0 0.0 0.0 0.0 0.0 0.0 0.0 0.0
0.0 0.0 0.0 0.0 0.0 0.0 0.0 0.0
00000000: 0000 0000 0000 0000 0000 0000 0000 0000
00000010: 0000 0000 0000 0000 0000 0000 0000 0000
00000020: 0000 0000 0000 0000 0000 0000 0000 0000
00000030: 0000 0000 0000 0000 0000 0000 0000 0000

weight f4 [128, 16]
0.07070243 0.056147575 -0.16990478 -0.092734486 -0.19231133 0.123054594 -0.20338461 -0.0984615
0.03371708 0.0349873 0.0847677 -0.07259312 0.13045639 -0.20082 -0.035966784 -0.018124267
0.017217144 -0.19485323 -0.20353986 -0.101117715 -0.19308461 0.10803661 -0.18735781 0.050357014
-0.08705809 0.092654794 0.038201034 -0.16455208 -0.06627692 -0.17587185 0.07934481 0.07894787
0.07119936 0.1429975 0.05178672 -0.045433506 0.17909053 -0.121352404 -0.051191807 0.11268723
0.02590385 0.1254456 0.1642457 0.092580795 0.027674928 -0.06964068 -0.0008674413 -0.02771099
0.074127495 0.117248535 0.03492686 0.15707165 -0.13367708 -0.111556955 0.048791856 -0.022122145
-0.104759224 -0.0896938 0.14156005 -0.15608975 -0.032363966 0.047985733 -0.013639793 0.1391811
-0.12223328 0.09225109 0.1949254 0.18270275 0.0808692 -0.10050641 -0.20242125 -0.20279294
0.14874703 0.20223618 -0.2004322 0.00087444484 -0.06507297 -0.0854377 0.0063491166 -0.09318991
0.09123978 0.059827626 0.053319067 0.07676306 -0.006677717 0.003134057 -0.10201652 0.13564101
-0.012092426 -0.04447046 -0.193918 0.06749511 -0.032095686 -0.1714772 -0.05430956 -0.020221159
-0.19964397 0.022224322 -0.092659906 0.031526446 -0.13737673 -0.03588298 0.17765331 0.0763433
-0.17998987 -0.023529664 -0.09134928 -0.16451319 0.13097224 -0.046111956 -0.006305903 -0.17860538
0.20154807 -0.046866626 0.05310726 -0.0066800863 -0.09108409 -0.14856865 -0.05228497 0.10914704
-0.14249025 0.0724836 -0.13961583 0.13674518 0.070780486 0.06734201 -0.15651236 0.013174355
-0.069059 -0.019929796 0.14318597 0.007279068 -0.15096253 0.16250876 -0.08746125 0.07757807
0.19606647 0.20016971 0.0015566349 -0.09159935 0.008675188 -0.035994545 0.058075756 -0.0007901341
0.029057473 -0.061778173 0.14414155 -0.026817068 -0.105002634 -0.046546027 0.19823292 -0.14853363
-0.19068581 0.088805884 0.048446506 -0.018740654 -0.057736307 -0.14652792 -0.06349976 -0.102067575
0.11416423 -0.079540186 -0.12689441 0.11994022 -0.018747374 0.19562742 0.048371494 -0.076537
-0.19152711 0.095603436 0.11127567 0.09808293 -0.04881604 -0.1655601 0.0742476 -0.011224896
-0.17125341 0.041770533 0.019654438 -0.12518734 -0.15033057 -0.109645516 -0.122306325 -0.14883375
0.15120661 -0.10034253 -0.026612446 -0.10714593 0.10967833 -0.16618587 -0.11825971 -0.13775031
-0.09278651 0.12588748 0.074510634 -0.06829481 0.054730117 -0.10247219 -0.19171025 -0.19265278
0.16808984 0.15805715 0.1576823 -0.08989185 0.1049338 -0.042617828 0.07800627 0.16189492
0.15186417 -0.062332943 -0.116664775 0.044178724 -0.10476762 -0.13889493 -0.15651487 0.072407335
0.1156787 -0.16960308 -0.19501454 -0.051735938 -0.04604116 -0.045165405 0.0030230433 -0.09595734
-0.055053264 -0.20142119 0.19824818 0.07117012 -0.09551763 0.07499844 -0.066719204 -0.009160861
-0.13846287 -0.1629442 0.07444674 -0.17997172 0.1039426 -0.13124971 0.08037317 -0.14916646
-0.19651425 -0.18572314 -0.1761411 -0.094618775 -0.07147178 -0.12625232 -0.046841398 0.13424566
0.10410762 -0.13469306 -0.18287972 0.14366981 0.021499634 0.09245184 0.015410915 -0.1340424
00000000: 70cc 903d 00fb 653d 85fb 2dbe 94eb bdbd
00000010: 43ed 44be 0c04 fc3d 0e44 50be 2fa6 c9bd
00000020: ec1a 0a3d d84e 0f3d b09a ad3d b4ab 94bd
00000030: 5c96 053e c2a3 4dbe e851 13bd 5879 94bc
00000040: f80a 8d3c 9b87 47be c16c 50be ce16 cfbd
00000050: f9b7 45be 4c42 dd3d bada 3fbe 2843 4e3d
00000060: 834b b2bd ccc1 bd3d b078 1c3d 5780 28be
00000070: 32bc 87bd c017 34be 887f a23d 6caf a13d
00000080: f8d0 913d f06d 123e 501e 543d 7c18 3abd
00000090: 8263 373e 9c87 f8bd 80ae 51bd 90c8 e63d
000000a0: 5034 d43c d074 003e 0630 283e 009b bd3d
000000b0: 88b6 e23c c69f 8ebd 0065 63ba 2802 e3bc
000000c0: 28d0 973d 0020 f03d 780f 0f3d 64d7 203e
000000d0: a5e2 08be f977 e4bd f8d9 473d 8039 b5bc
000000e0: 018c d6bd 62b1 b7bd 1ef5 103e fed5 1fbe
000000f0: 1490 04bd b08c 443d 7079 5fbc 7e85 0e3e
00000100: 7155 fabd 24ee bc3d 869a 473e 6e16 3b3e
00000110: c09e a53d 4ed6 cdbd 8447 4fbe f4a8 4fbe
00000120: 2451 183e 0017 4f3e 193e 4dbe 003b 653a
00000130: fa44 85bd f6f9 aebd 400c d03b 5ada bebd
00000140: ecdb ba3d d00d 753d 1865 5a3d f435 9d3d
00000150: c0d0 dabb c064 4d3b 0aee d0bd 7ae5 0a3e
00000160: 501f 46bc a826 36bd 7192 46be e03a 8a3d
00000170: c476 03bd b897 2fbe b473 5ebd d8a6 a5bc
00000180: 786f 4cbe c80f b63c 7ac4 bdbd e021 013d
00000190: 7cac 0cbe 08fa 12bd c0ea 353e e059 9c3d
000001a0: 444f 38be 48c1 c0bc 5515 bbbd 2576 28be
000001b0: 961d 063e e4df 3cbd c0a1 cebb 54e4 36be
000001c0: 9e62 4e3e 38f7 3fbd 0087 593d a0e4 dabb
000001d0: 4c8a babd 6122 18be c428 56bd 7c88 df3d
000001e0: f7e8 11be 4872 943d 74f7 0ebe ee06 0c3e
000001f0: 5cf5 903d 9cea 893d c744 20be 40d9 573c
00000200: ce6e 8dbd d043 a3bc 589f 123e 4085 ee3b
00000210: ec95 1abe b268 263e e21e b3bd 40e1 9e3d
00000220: a6c5 483e 4af9 4c3e 0008 cc3a 7198 bbbd
00000230: 6022 0e3c 046f 13bd d8e0 6d3d 0021 4fba
00000240: f009 ee3c 1c0b 7dbd d899 133e 78af dbbc
00000250: 9f0b d7bd 0ca7 3ebd 92fd 4a3e 3319 18be
00000260: 2443 43be dcdf b53d d86f 463d 0086 99bc
00000270: e87c 6cbd 6a0b 16be 2a0c 82bd ce08 d1bd
00000280: f0ce e93d f7e5 a2bd 9cf0 01be 38a3 f53d
00000290: 1894 99bc 8e52 483e 3021 463d 6ebf 9cbd
000002a0: af1f 44be bccb c33d 80e4 e33d b4df c83d
000002b0: 54f3 47bd 9688 29be 200f 983d a0e8 37bc
000002c0: 0e5d 2fbe 9417 2b3d 5802 a13c 1c31 00be
000002d0: 42f0 19be d48d e0bd bd7b fabd e067 18be
000002e0: e8d5 1a3e 6280 cdbd 5802 dabc 536f dbbd
000002f0: 089f e03d a12c 2abe 2632 f2bd 6b0e 0dbe
00000300: db06 bebd a6e8 003e 0899 983d 26de 8bbd
00000310: b02c 603d f1dc d1bd b14f 44be c546 45be
00000320: be1f 2c3e bcd9 213e 7877 213e 3819 b8bd
00000330: 88e7 d63d 0890 2ebd c0c1 9f3d c8c7 253e
00000340: 4882 1b3e d450 7fbd f1ed eebd c0f4 343d
00000350: 6890 d6bd 793a 0ebe 6f45 20be 4c4a 943d
00000360: f4e8 ec3d 6eac 2dbe e4b1 47be 10e9 53bd
00000370: a895 3cbd 5cff 38bd 401e 463b 4885 c4bd
00000380: 887f 61bd 5b41 4ebe 9201 4b3e a4c1 913d
00000390: bf9e c3bd c898 993d 14a4 88bd 7017 16bc
000003a0: 36c9 0dbe d8da 26be 8877 983d 824a 38be
000003b0: dcdf d43d 5366 06be b09a a43d 18bf 18be
000003c0: 083b 49be 352e 3ebe 555e 34be 7dc7 c1bd
000003d0: cc5f 92bd 4a48 01be c4dc 3fbd b277 093e
000003e0: 6036 d53d faec 09be d244 3bbe 2e1e 133e
000003f0: 0020 b03c 6457 bd3d 107e 7c3c 6942 09be

bias f4 [128]
0.1997723 -0.13145322 0.12142688 -0.08890301 0.06596014 0.0007535517 0.092570394 -0.23088983
-0.07014823 0.17568073 0.20876569 -0.14598677 -0.13273168 0.12740481 0.14750919 0.0869295
0.14860016 0.16708967 -0.20565256 0.07771817 -0.21074188 -0.063670844 0.22526443 0.20206177
0.24922088 -0.12080309 -0.104868114 -0.21576244 -0.22990796 -0.23247576 -0.22546792 0.19571835
-0.18124723 -0.09637284 0.10731897 0.180614 0.03537324 0.008510321 0.16533 -0.18970925
0.1864632 0.24616665 -0.24865311 0.22466949 0.080287755 0.045571774 0.01688537 0.103613555
0.16080815 -0.048557162 0.123179436 0.01239875 -0.19925714 0.020655394 -0.20230442 -0.0014315546
-0.1821332 -0.06945264 0.13332671 0.01140511 0.15265775 0.17156014 0.1909137 -0.246779
-0.22466373 0.23652315 -0.17016974 0.19966137 -0.2348856 -0.017535329 0.05805269 -0.11557412
0.039753318 -0.2415356 0.05981782 0.12599409 0.10864234 0.014483392 0.13906133 0.016546309
-0.12914613 -0.18857297 -0.17417589 -0.22519931 0.072074264 0.22976634 -0.19776487 0.2025336
-0.20657125 0.12392229 -0.19189066 -0.22264779 0.10476047 -0.23577055 -0.10268864 -0.13620323
-0.15798956 0.09569359 0.111138165 -0.19080478 0.20535779 0.16120845 0.0517596 0.10128671
0.21706605 -0.043258727 0.19494942 0.027083695 -0.13559994 -0.22474483 -0.11264902 0.0060476363
-0.047617912 0.19314295 0.13096234 0.052702874 0.17847839 0.071970284 -0.1516302 -0.097465485
0.15943769 0.11095506 0.20396796 -0.07926428 -0.19424462 0.052648246 0.13357419 -0.13139391
00000000: 1c91 4c3e ac9b 06be a8ae f83d c812 b6bd
00000010: 1c16 873d 008a 453a 8c95 bd3d 626e 6cbe
00000020: e0a9 8fbd a6e5 333e acc6 553e 8e7d 15be
00000030: d0ea 07be 6876 023e a60c 173e 1808 b23d
00000040: a42a 183e 8e19 2b3e 9696 52be b42a 9f3d
00000050: b8cc 57be dc65 82bd b8ab 663e 48e9 4e3e
00000060: c233 7f3e 9c67 f7bd 18c5 d6bd d4f0 5cbe
00000070: fe6c 6bbe 200e 6ebe 10e1 66be 646a 483e
00000080: e098 39be 205f c5bd 0cca db3d e0f2 383e
00000090: 88e3 103d e06e 0b3c 444c 293e 2443 42be
000000a0: 36f0 3e3e 1c13 7c3e ec9e 7ebe c20f 663e
000000b0: e86d a43d 78a9 3a3d 3053 8a3c 5833 d43d
000000c0: e4aa 243e e0e3 46bd 8045 fc3d 2024 4b3c
000000d0: 100a 4cbe 8035 a93c e428 4fbe 00a3 bbba
000000e0: 2081 3abe 303d 8ebd cc86 083e 80dc 3a3c
000000f0: 5052 1c3e 76ad 2f3e e27e 433e a2b3 7cbe
00000100: 400e 66be 2033 723e fa40 2ebe 0874 4c3e
00000110: da85 70be 40a6 8fbc a8c8 6d3d 20b2 ecbd
00000120: 60d4 223d 1c55 77be 8803 753d 9804 013e
00000130: e07f de3d c04b 6d3c 1866 0e3e 208c 873c
00000140: e23e 04be 4619 41be 2a5b 32be a69a 66be
00000150: ac9b 933d de47 6b3e e082 4abe f864 4f3e
00000160: 6a87 53be f8ca fd3d fc7e 44be c8fd 63be
00000170: a88c d63d d66d 71be 6c4e d2bd dc78 0bbe
00000180: 04c8 21be 00fb c33d 689c e33d 5462 43be
00000190: 5049 523e d413 253e e001 543d 686f cf3d
000001a0: 9046 5e3e 1030 31bd d2a0 473e a0de dd3c
000001b0: b6da 0abe 8223 66be 88b4 e6bd 402b c63b
000001c0: 000b 43bd 44c7 453e fe1a 063e f8de 573d
000001d0: 0ac3 363e 2865 933d f244 1bbe fc9b c7bd
000001e0: a243 233e 683c e33d fadc 503e 5055 a2bd
000001f0: 10e8 46be b0a5 573d acc7 083e 208c 06be

weight f4 [16, 128]
0.078733295 -0.08547342 0.1321558 0.034295574 0.13496262 -0.1540464 0.058614016 0.04343611
-0.056064636 -0.08219337 0.1338889 -0.15732974 0.15741685 0.08851752 0.08715773 0.098196834
0.09455359 0.13776237 0.12840301 -0.03371881 -0.09723891 -0.010055691 -0.05182956 -0.01640965
-0.15623863 -0.019803986 0.010815263 0.026795775 -0.045508966 0.055573344 0.0105341375 -0.16305518
0.07243127 0.16005519 -0.19130181 0.05938235 0.019611403 0.11277819 -0.06714806 0.027469471
0.11019972 -0.12917311 0.03225988 -0.04842928 -0.1753073 -0.08923492 -0.2033221 -0.1510109
0.023842275 -0.19025742 -0.12205691 0.1801391 -0.115315706 -0.099361956 -0.017356575 -0.13154072
-0.17803633 0.04169348 -0.057869554 -0.11925021 0.1800316 -0.075133905 0.041291803 0.13928229
0.089445144 0.14744958 0.044307813 -0.027110681 -0.16483155 0.052612633 0.17070147 -0.15451163
-0.1861377 -0.14041016 -0.11913799 0.1468851 -0.11234743 -0.06198457 0.047431797 0.0034315884
-0.14723504 0.036452398 -0.18541291 0.114839375 0.0589571 -0.044743627 -0.07915433 0.20273006
0.054809958 0.001480639 0.09103611 -0.07570663 0.0229695 -0.091167584 -0.05901873 -0.0065944046
0.18022385 -0.0666655 0.18234372 0.19759879 0.19065472 0.16654286 -0.06495948 0.079285294
0.09351015 0.03493032 -0.037525386 0.2010822 -0.061255664 0.14024815 0.009006217 -0.108947486
-0.053354308 -0.104741536 -0.09558484 0.14773506 0.18630964 0.06265557 0.08130461 0.118537664
0.15070888 0.10686323 0.07428068 -0.14803454 0.053356826 0.0074254423 0.07590139 -0.030550167
0.004611045 -0.2006019 0.203946 -0.15982695 -0.047894254 -0.10725385 -0.13309255 0.1936484
-0.0050245225 0.010684714 0.016233504 0.0909591 0.19645506 0.0035903156 -0.14584735 0.14248443
-0.12977788 -0.14879599 -0.16675773 0.021345198 0.082151234 0.08907047 0.15300786 -0.115833715
0.1578157 0.13237205 -0.047612906 0.16785479 0.07454556 0.060401857 0.10545522 0.16886145
-0.15889451 -0.124132894 0.18160114 0.012621954 -0.0670217 0.0035386533 0.15319571 -0.12245985
0.021094978 -0.033789814 0.060103476 -0.01394105 -0.19414766 0.17921045 -0.1121981 -0.060099334
-0.09555355 0.1858877 -0.08827898 0.04574126 0.070177466 -0.12029173 -0.051003292 -0.09926633
-0.0650783 0.10755792 -0.08460973 0.037826076 -0.08031737 -0.10214415 0.08961305 0.05610144
-0.19134079 0.10835117 -0.13729751 0.030255497 -0.124231815 -0.07783157 -0.051216558 0.14125758
0.014297709 -0.19246306 -0.11713605 0.18727085 0.0563114 -0.10206534 -0.1605043 0.03339702
-0.16668361 -0.08880825 -0.01035665 -0.055975318 0.104314595 0.15343067 0.18286565 0.16644883
0.1927414 -0.14327827 -0.103190325 -0.05864638 -0.18694207 0.06555748 -0.1413419 -0.18543844
-0.08968058 0.16538495 0.15876669 -0.04745774 0.18468618 -0.012862682 -0.20394821 -0.06013052
0.19463733 -0.11526767 -0.044810697 0.1023975 0.088261485 0.024306297 -0.09989316 0.14021015
0.1831482 0.18320158 -0.14013347 0.13712189 0.072021574 -0.02369605 0.12441301 -0.18767162
0.17058149 -0.18578507 -0.122406706 -0.017631099 -0.102484144 -0.119177744 -0.0328871 -0.01852198
00000000: ec3e a13d b00c afbd da53 073e 8479 0c3d
00000010: a433 0a3e 57be 1dbe 4015 703d 10ea 313d
00000020: 08a4 65bd ff54 a8bd 2c1a 093e 0c1b 21be
00000030: e231 213e ac48 b53d c07f b23d 6c1b c93d
00000040: 50a5 c13d 9411 0d3e 147c 033e bc1c 0abd
00000050: 3225 c7bd a0c0 24bc 3c4b 54bd 886d 86bc
00000060: 05fd 1fbe f83b a2bc 8032 313c d082 db3c
00000070: 9c67 3abd e0a0 633d 6097 2c3c f0f7 26be
00000080: d856 943d 82e5 233e 9fe4 43be e83a 733d
00000090: 18a8 a03c 40f8 e63d ec84 89bd a807 e13c
000000a0: 64b0 e13d f545 04be f022 043d c85d 46bd
000000b0: c283 33be ccc0 b6bd ab33 50be 9aa2 1abe
000000c0: e050 c33c d7d2 42be f9f8 f9bd 6276 383e
000000d0: a42a ecbd 487e cbbd 602f 8ebc 9cb2 06be
000000e0: 284f 36be c8c6 2a3d a008 6dbd 7439 f4bd
000000f0: 345a 383e cedf 99bd 9821 293d 04a0 0e3e
00000100: 042f b73d 06fd 163e 1c7c 353d 3817 debc
00000110: 9ac9 28be 5880 573d 5ecc 2e3e 4c38 1ebe
00000120: e29a 3ebe aec7 0fbe 9efe f3bd 0c69 163e
00000130: 6916 e6bd 88e3 7dbd d847 423d 80e4 603b
00000140: c8c4 16be 1c4f 153d e2dc 3dbe e830 eb3d
00000150: 007d 713d 1845 37bd aa1b a2bd 7898 4f3e
00000160: 6880 603d 0012 c23a 2471 ba3d 140c 9bbd
00000170: 882a bc3c 12b6 babd a0bd 71bd e015 d8bb
00000180: 9a8c 383e ec87 88bd 50b8 3a3e 5657 4a3e
00000190: fe3a 433e 368a 2a3e 7a09 85bd 5460 a23d
000001a0: 4082 bf3d 1813 0f3d 38b4 19bd 7ee8 4d3e
000001b0: 38e7 7abd 369d 0f3e d08e 133c dc1f dfbd
000001c0: 0c8a 5abd bb82 d6bd fcc1 c3bd dc47 173e
000001d0: f4c7 3e3e 9051 803d 0883 a63d e0c3 f23d
000001e0: 6e53 1a3e 1cdb da3d 7820 983d 5e96 17be
000001f0: b08c 5a3d 2051 f33b 3072 9b3d 5844 fabc
00000200: 4018 973b 966a 4dbe 38d7 503e ada9 23be
00000210: c42c 44bd e8a7 dbbd 6a49 08be c44b 463e
00000220: c0a4 a4bb f00e 2f3c 20fc 843c c448 ba3d
00000230: 842b 493e 804b 6b3b 0259 15be 70e7 113e
00000240: 7ee4 04be fa5d 18be 8ac2 2abe 20dc ae3c
00000250: e83e a83d 946a b63d 18ae 1c3e 3a3a edbd
00000260: 709a 213e 8a8c 073e c005 43bd 20e2 2b3e
00000270: 58ab 983d f067 773d e8f8 d73d 04ea 2c3e
00000280: 3eb5 22be 6339 febd a6f5 393e 50cc 4e3c
00000290: ac42 89bd c0e8 673b 56df 1c3e 3bcc fabd
000002a0: 60cf ac3c 3067 0abd 102f 763d 0069 64bc
000002b0: a5ce 46be f282 373e 1ec8 e5bd b82a 76bd
000002c0: 94b1 c3bd 5859 3e3e 9ccb b4bd 305b 3b3d
000002d0: 34b9 8f3d 835b f6bd d4e8 50bd 254c cbbd
000002e0: c647 85bd 5447 dc3d de47 adbd 84ef 1a3d
000002f0: 6f7d a4bd f430 d1bd 0c87 b73d a0ca 653d
00000300: d7ee 43be 38e7 dd3d b897 0cbe 60da f73c
00000310: 406d febd 2866 9fbd 74c8 51bd d4a5 103e
00000320: f040 6a3c 0915 45be 06e5 efbd eec3 3f3e
00000330: c8a6 663d a207 d1bd 3d5b 24be 50cb 083d
00000340: 1caf 2abe 1ae1 b5bd f0ae 29bc 6046 65bd
00000350: e4a2 d53d ee1c 1d3e 2241 3b3e 9071 2a3e
00000360: 005e 453e 8ab7 12be 7355 d3bd 3037 70bd
00000370: be6d 3fbe 0043 863d eebb 10be 93e3 3dbe
00000380: 74aa b7bd ac5a 293e bc93 223e 0c63 42bd
00000390: 601e 3d3e 00be 52bc cdd7 50be 6c4b 76bd
000003a0: 024f 473e 7511 ecbd 6c8b 37bd c8b5 d13d
000003b0: 70c2 b43d 001e c73c c994 ccbd 4093 0f3e
000003c0: 348b 3b3e 3299 3b3e 267f 0fbe ae69 0c3e
000003d0: 0c80 933d 381e c2bc 40cc fe3d fd2c 40be
000003e0: eaac 2e3e 713e 3ebe 5eb0 fabd 186f 90bc
000003f0: 35e3 d1bd 7613 f4bd a0b4 06bd 68bb 97bc

bias f4 [16]
-0.0002085939 0.044677667 -0.024938129 -0.081524216 -0.0345694 -0.029322013 -0.0005853772 -0.054802958
-0.032569766 0.040313147 0.08143478 0.02173195 -0.016051099 -0.046405006 0.08280579 -0.037977155
00000000: 00ba 5ab9 eeff 363d 0c4b ccbc 2bf6 a6bd
00000010: a598 0dbd b834 f0bc 0074 19ba 1179 60bd
00000020: e067 05bd 661f 253d 47c7 a63d 3407 b23c
00000030: 987d 83bc 2d13 3ebd 1596 a93d ef8d 1bbd

weight f4 [16]
1.0 1.0 1.0 1.0 1.0 1.0 1.0 1.0
1.0 1.0 1.0 1.0 1.0 1.0 1.0 1.0
00000000: 0000 803f 0000 803f 0000 803f 0000 803f
00000010: 0000 803f 0000 803f 0000 803f 0000 803f
00000020: 0000 803f 0000 803f 0000 803f 0000 803f
00000030: 0000 803f 0000 803f 0000 803f 0000 803f

bias f4 [16]
0.0 0.0 0.0 0.0 0.0 0.0 0.0 0.0
0.0 0.0 0.0 0.0 0.0 0.0 0.0 0.0
00000000: 0000 0000 0000 0000 0000 0000 0000 0000
00000010: 0000 0000 0000 0000 0000 0000 0000 0000
00000020: 0000 0000 0000 0000 0000 0000 0000 0000
00000030: 0000 0000 0000 0000 0000 0000 0000 0000

weight f4 [16]
1.0 1.0 1.0 1.0 1.0 1.0 1.0 1.0
1.0 1.0 1.0 1.0 1.0 1.0 1.0 1.0
00000000: 0000 803f 0000 803f 0000 803f 0000 803f
00000010: 0000 803f 0000 803f 0000 803f 0000 803f
00000020: 0000 803f 0000 803f 0000 803f 0000 803f
00000030: 0000 803f 0000 803f 0000 803f 0000 803f

bias f4 [16]
0.0 0.0 0.0 0.0 0.0 0.0 0.0 0.0
0.0 0.0 0.0 0.0 0.0 0.0 0.0 0.0
00000000: 0000 0000 0000 0000 0000 0000 0000 0000
00000010: 0000 0000 0000 0000 0000 0000 0000 0000
00000020: 0000 0000 0000 0000 0000 0000 0000 0000
00000030: 0000 0000 0000 0000 0000 0000 0000 0000

in_proj_weight f4 [48, 16]
-0.2923754 0.1322555 0.29683182 0.28817615 -0.071826935 0.24763533 0.26688048 0.011167496
0.13597971 -0.0285694 -0.15670373 0.19574806 -0.09748416 -0.27897093 0.10331681 0.059435904
-0.21419066 -0.121491015 0.026651233 -0.07636526 -0.09228966 -0.046862602 0.17782643 0.070919394
0.008774728 -0.22644985 -0.048824906 -0.24378468 0.09529802 0.16363737 -0.08336903 -0.15375125
0.07877606 0.21294788 -0.2751585 0.21098086 0.22935984 0.15950954 -0.2919275 0.28824952
-0.18841583 -0.06944102 -0.11203946 0.22032967 -0.05910109 -0.14442335 -0.04625812 -0.114161074
0.2815251 -0.1287123 0.29123542 -0.16125369 0.27852723 -0.18836173 0.015154183 0.025982559
-0.012912899 -0.2647699 0.12443784 -0.09169437 0.17071849 0.08403984 -0.044249177 -0.19754392
0.18135533 -0.21245193 -0.21939635 0.03399685 -0.10694301 -0.18060353 -0.1766287 -0.03237328
-0.053145707 0.27347937 0.25946948 -0.026884168 -0.23253162 0.08242485 0.15341052 0.20701781
0.0036152005 -0.120734036 0.010752201 0.29839882 0.23745534 0.2814274 -0.10462214 -0.23757985
0.18714708 0.1406155 0.18463716 0.095145404 0.28442886 -0.2984019 0.2938597 0.27947387
0.29863992 0.22167155 -0.077850565 -0.09459385 0.058981925 -0.08586526 0.16596922 -0.1453482
-0.051198095 0.045330197 0.25062272 0.28794667 -0.27452227 -0.13925138 -0.2426508 -0.27898943
0.30319598 -0.1639019 0.28191802 -0.06765072 0.034959882 -0.21447036 -0.13814864 0.20008346
-0.00907743 -0.1305667 0.017434418 -0.2121608 0.09998301 -0.091460854 0.09637484 0.06951347
0.104788035 -0.13676225 0.20300081 0.07044619 -0.13231447 -0.22258592 -0.24510081 -0.29267335
0.21968928 0.30037943 -0.2956904 0.2929708 0.28495434 0.1088146 0.01930973 0.28213826
-0.28317672 -0.08690299 0.1704529 -0.123919934 -0.19905612 -0.06238994 -0.039569438 -0.16918476
0.18779725 -0.08844195 0.026485533 0.065728694 0.18524909 -0.16213295 -0.120526835 0.20780924
-0.087147206 0.0884873 -0.2584717 -0.29252368 -0.065892026 -0.21904346 0.15220916 -0.042231888
0.21330181 0.06453225 -0.08964555 -0.18450591 -0.28965726 -0.120430544 -0.19213077 0.30098358
0.1388613 -0.26281214 -0.22088377 0.19949606 -0.19667174 0.24435529 -0.067059666 -0.070068866
0.0048939884 0.09545523 0.18364394 0.0114791095 -0.13029097 0.036775738 0.08240354 -0.2497443
-0.2858402 0.18217617 0.2331194 0.1388177 -0.081621006 0.04962024 0.09248164 0.2931786
0.15048987 -0.1628508 -0.24555229 0.087556005 0.23585239 0.021772772 0.16585854 0.029476821
0.117652 0.12753361 0.04395458 -0.0901521 0.12635675 0.13944855 0.1669977 -0.019506544
-0.29626945 -0.030442834 0.07402995 0.100476116 -0.2944505 0.03903207 -0.15708062 0.2567369
-0.07569055 0.30417177 0.045405835 -0.14074388 -0.004175514 0.2517188 0.06926501 -0.06282437
0.09761456 -0.25114 0.12832609 0.18938658 0.07699567 -0.2151314 0.2680104 0.275838
-0.20708905 -0.015926957 0.27415827 0.17054951 -0.019451916 -0.05004859 0.10530183 -0.10653414
-0.26815647 -0.122812584 -0.09690735 0.1474474 -0.11757842 -0.059224233 0.11189422 -0.22546737
00000000: 3ab2 95be fc6d 073e 57fa 973e d38b 933e
00000010: 001a 93bd 1e94 7d3e 8fa4 883e e0f7 363c
00000020: 443e 0b3e 600a eabc f176 20be 2e72 483e
00000030: c6a5 c7bd 47d5 8ebe c497 d33d 1073 733d
00000040: cc54 5bbe 48d0 f8bd b053 da3c 6465 9cbd
00000050: 5c02 bdbd 00f3 3fbd 2218 363e 303e 913d
00000060: e0c3 0f3c 78e2 67be a0fc 47bd b1a2 79be
00000070: 9c2b c33d 8e90 273e 62bd aabd f870 1dbe
00000080: 5855 a13d 020f 5a3e 93e1 8cbe 5e0b 583e
00000090: 4edd 6a3e 7856 233e 8577 95be 7195 933e
000000a0: 14f0 40be 1837 8ebd f274 e5bd 1a9e 613e
000000b0: fc13 72bd b7e3 13be 2879 3dbd 48cd e9bd
000000c0: 0f24 903e 28cd 03be cf1c 953e b01f 25be
000000d0: 1f9b 8e3e e6e1 40be 4049 783c 60d9 d43c
000000e0: a090 53bc ec8f 87be 44d9 fe3d 42ca bbbd
000000f0: d4d0 2e3e 141d ac3d a03e 35bd f448 4abe
00000100: 36b5 393e 008d 59be 70a9 60be 4840 0b3d
00000110: f004 dbbd 22f0 38be 27de 34be d899 04bd
00000120: 50af 59bd 7d05 8c3e 2fd9 843e 303c dcbc
00000130: c51c 6ebe 5cce a83d a617 1d3e 7afc 533e
00000140: 00ed 6c3b 6843 f7bd 002a 303c bbc7 983e
00000150: 7e27 733e 4117 903e 2244 d6bd 2248 73be
00000160: 7ca3 3f3e 82fd 0f3e 8611 3d3e 98db c23d
00000170: a9a0 913e 22c8 98be c774 963e 3317 8f3e
00000180: 55e7 983e defd 623e 1e70 9fbd 6cba c1bd
00000190: 0897 713d 20da afbd d6f3 293e 29d6 14be
000001a0: 18b5 51bd 28ac 393d 9f51 803e bf6d 933e
000001b0: 2f8e 8cbe ea97 0ebe 7479 78be b4d7 8ebe
000001c0: 813c 9b3e e6d5 27be 8f57 903e 768c 8abd
000001d0: 1832 0f3d 1e9e 5bbe d676 0dbe aee2 4c3e
000001e0: 80b9 14bc 47b3 05be a0d2 8e3c ae40 59be
000001f0: e4c3 cc3d d44f bbbd 2c60 c53d 145d 8e3d
00000200: 1c9b d63d 670b 0cbe 72df 4f3e 1846 903d
00000210: 727d 07be 90ed 63be b5fb 7abe 48d9 95be
00000220: 3af6 603e 55cb 993e bb64 97be 4500 963e
00000230: 89e5 913e 30da de3d 702f 9e3c 6d74 903e
00000240: 8afc 90be 32fa b1bd 348b 2e3e bcc9 fdbd
00000250: 5ed5 4bbe 988c 7fbd 9013 22bd c53e 2dbe
00000260: ec4d 403e 0e21 b5bd 30f8 d83c c49c 863d
00000270: f0b1 3d3e 2e06 26be c6d6 f6bd f2cb 543e
00000280: 3c7a b2bd d438 b53d 6756 84be aac5 95be
00000290: 66f2 86bd ee4c 60be b8dc 1b3e 58fb 2cbd
000002a0: ca6b 5a3e 7c29 843d 1698 b7bd 1eef 3cbe
000002b0: f54d 94be 4aa4 f6bd eebd 44be 851a 9a3e
000002c0: a831 0e3e 508f 86be 5b2f 62be b248 4c3e
000002d0: 5164 49be 4638 7a3e 9456 89bd 4480 8fbd
000002e0: c05d a03b 087e c33d 280d 3c3e e012 3c3c
000002f0: ff6a 05be 28a2 163d 30c3 a83d f8bc 7fbe
00000300: a659 92be 648c 3a3e dab6 6e3e 3a26 0e3e
00000310: ea28 a7bd 983e 4b3d 0467 bd3d 811b 963e
00000320: 041a 1a3e 5cc2 26be 0f72 7bbe 9050 b33d
00000330: 4a83 713e d05c b23c d2d6 293e 6079 f13c
00000340: 88f3 f03d 2c98 023e b809 343d aaa1 b8bd
00000350: aa63 013e 9acb 0e3e 7201 2b3e 30cc 9fbc
00000360: a1b0 97be 4063 f9bc 049d 973d 6cc6 cd3d
00000370: 37c2 96be 18e0 1f3d bed9 20be 0573 833e
00000380: a603 9bbd 67bc 9b3e 78fb 393d 2a1f 10be
00000390: c0d2 88bb 49e1 803e d0da 8d3d 10aa 80bd
000003a0: 24ea c73d 6c95 80be ea67 033e 8eee 413e
000003b0: e8af 9d3d 684b 5cbe a938 893e a33a 8d3e
000003c0: 270f 54be 4079 82bc 795e 8c3e 88a4 2e3e
000003d0: a059 9fbc c0ff 4cbd 7ca8 d73d 922e dabd
000003e0: ce4b 89be 2a85 fbbd 5c77 c6bd 74fc 163e
000003f0: f4cc f0bd 1c95 72bd cc28 e53d ebe0 66be

in_proj_bias f4 [48]
0.0 0.0 0.0 0.0 0.0 0.0 0.0 0.0
0.0 0.0 0.0 0.0 0.0 0.0 0.0 0.0
0.0 0.0 0.0 0.0 0.0 0.0 0.0 0.0
0.0 0.0 0.0 0.0 0.0 0.0 0.0 0.0
0.0 0.0 0.0 0.0 0.0 0.0 0.0 0.0
0.0 0.0 0.0 0.0 0.0 0.0 0.0 0.0
00000000: 0000 0000 0000 0000 0000 0000 0000 0000
00000010: 0000 0000 0000 0000 0000 0000 0000 0000
00000020: 0000 0000 0000 0000 0000 0000 0000 0000
00000030: 0000 0000 0000 0000 0000 0000 0000 0000
00000040: 0000 0000 0000 0000 0000 0000 0000 0000
00000050: 0000 0000 0000 0000 0000 0000 0000 0000
00000060: 0000 0000 0000 0000 0000 0000 0000 0000
00000070: 0000 0000 0000 0000 0000 0000 0000 0000
00000080: 0000 0000 0000 0000 0000 0000 0000 0000
00000090: 0000 0000 0000 0000 0000 0000 0000 0000
000000a0: 0000 0000 0000 0000 0000 0000 0000 0000
000000b0: 0000 0000 0000 0000 0000 0000 0000 0000

weight f4 [16, 16]
0.21947959 -0.23428914 -0.09888491 -0.106366396 0.31510845 0.17704687 -0.20091686 -0.37298056
0.109805495 0.030335635 0.27717784 0.4053119 0.18342987 -0.26702106 -0.20948997 -0.33127707
0.3575075 -0.25726908 0.21466115 0.27197364 0.1784167 -0.12186891 0.14058629 0.36722818
0.39144358 0.28813758 0.24113718 0.2869886 -0.028874397 -0.14480168 -0.42863023 -0.27702415
-0.36128414 0.27908006 0.18913612 0.29567227 0.24611595 0.00103423 -0.06825727 -0.17661065
0.18855515 -0.02090332 -0.27200043 0.23362741 0.41107133 -0.075597316 -0.0070565343 -0.35816664
0.07252684 -0.21990944 -0.05965653 0.24503312 0.23946843 0.13749108 -0.28184828 0.20417109
0.24785188 0.338065 0.25679144 0.3868582 -0.30552733 -0.3429886 -0.055113852 0.39229563
-0.05291298 0.42669722 0.4122338 -0.19540125 0.36619154 -0.22466749 0.1339626 -0.19293024
-0.34897503 0.12014046 0.37279394 0.3201399 -0.38164392 0.27727255 0.19672754 -0.060358673
-0.40583006 -0.23016833 -0.09629968 0.10029486 0.3551273 -0.36884224 -0.23573603 -0.1968141
0.41664073 -0.21341452 -0.026025534 0.19458243 -0.2801273 0.1548557 -0.21880572 -0.10969779
-0.15765387 -0.026539981 -0.28777736 -0.21930678 0.36145863 -0.2881688 -0.17397532 0.29071638
0.4322057 -0.28271633 -0.13542631 0.15690556 0.24045083 0.084878474 -0.24254262 -0.07719651
-0.19604138 -0.32166722 0.36007705 -0.1868446 0.37827107 0.05089754 0.023136467 0.027534992
0.0073697567 -0.3048126 0.061281413 -0.21486573 -0.35587853 0.37141308 -0.1451284 -0.29469055
0.36882636 -0.014651686 -0.053472787 -0.41627938 0.3678142 -0.3891074 -0.4184325 -0.010914147
0.024295688 0.058861494 -0.2710335 -0.39538074 -0.07055929 -0.12546027 -0.41125828 -0.29582602
-0.15675858 0.04165727 0.14811626 0.3951312 0.32876948 -0.017682761 -0.32607734 -0.38710997
0.15476838 -0.11989334 -0.13738912 -0.3858937 -0.3667925 -0.27061152 -0.052727252 0.33694223
-0.22353749 -0.0032225251 -0.36874712 -0.26334327 -0.4151165 0.4089794 -0.112335265 -0.1460895
-0.015497208 0.13571814 0.1985493 -0.29668966 0.035908192 -0.037543118 0.21663842 0.10406193
-0.3042019 0.27712223 0.35818455 0.094321996 0.2704076 -0.14038295 -0.16594923 -0.33902675
0.07586554 0.34798458 0.36920097 0.3614252 0.007722646 -0.06800118 -0.15589899 0.24356326
0.36592153 0.08407232 0.22193316 -0.032675058 -0.22646384 0.2087448 0.13872638 0.053144842
-0.09765485 0.14899376 -0.37155274 0.218775 0.38990638 0.37372568 0.18956056 -0.0050356984
-0.10574037 0.28215328 0.21899375 -0.1654641 0.27030715 -0.25698096 0.16688433 0.19081935
0.24741831 -0.10470125 0.23889914 0.23692515 -0.21231167 -0.22233234 -0.09650034 0.068666965
-0.20171076 -0.33347175 -0.3217189 0.10878423 0.17877766 -0.07976034 -0.013950527 -0.24987833
0.16417256 -0.24885358 0.26299074 0.35078904 -0.11029202 -0.40229762 0.123201996 -0.19179554
0.24062279 -0.09516814 -0.17635986 0.11388728 0.33172104 -0.3669686 0.011456519 0.09051773
-0.1855533 -0.14935562 0.3219634 -0.03578356 0.18115255 -0.1844679 0.19394013 0.2565649
00000000: 42bf 603e 7ee9 6fbe 2c84 cabd a0d6 d9bd
00000010: e555 a13e c64b 353e 26bd 4dbe 4ff7 bebe
00000020: b4e1 e03d 7082 f83c 41ea 8d3e 0b85 cf3e
00000030: 0ad5 3b3e fcb6 88be 8a84 56be 269d a9be
00000040: 390b b73e c6b8 83be 22d0 5b3e 2140 8b3e
00000050: deb2 363e 6896 f9bd daf5 0f3e 5505 bc3e
00000060: 4b6b c83e c586 933e aaec 763e 2bf0 923e
00000070: 008a ecbc e446 14be 6c75 dbbe 1cd6 8dbe
00000080: 3cfa b8be 95e3 8e3e e6ac 413e 5b62 973e
00000090: d205 7c3e 008f 873a 78ca 8bbd 6cd9 34be
000000a0: 9a14 413e 703d abbc a443 8bbe 063c 6f3e
000000b0: f177 d23e c4d2 9abd 803a e7bb 9e61 b7be
000000c0: f488 943d f12f 61be 685a 74bd f6e9 7a3e
000000d0: 3637 753e 76ca 0c3e 6b4e 90be 3a12 513e
000000e0: e2cc 7d3e db16 ad3e 2b7a 833e 4712 c63e
000000f0: 146e 9cbe 349c afbe 10bf 61bd f9da c83e
00000100: 48bb 58bd 0f78 da3e 4f10 d33e 4417 48be
00000110: 757d bb3e 3c0f 66be 7e2d 093e 818f 45be
00000120: dbac b2be 340c f63d d9de be3e 61e9 a33e
00000130: d566 c3be abf6 8d3e f272 493e a83a 77bd
00000140: f5c8 cfbe 3fb1 6bbe c438 c5bd 6467 cd3d
00000150: 3fd3 b53e e4d8 bcbe c964 71be a389 49be
00000160: ef51 d53e 5689 5abe 8033 d5bc 9e40 473e
00000170: d86c 8fbe 7e92 1e3e 9b0e 60be 3ca9 e0bd
00000180: 0470 21be 606a d9bc 8e57 93be f591 60be
00000190: 1b11 b93e dc8a 93be 9626 32be c7d8 943e
000001a0: 114a dd3e 32c0 90be 32ad 0abe daab 203e
000001b0: be38 763e c4d4 ad3d 185d 78be 3419 9ebd
000001c0: 12bf 48be 91b1 a4be 055c b83e 3154 3fbe
000001d0: bfac c13e f079 503d b088 bd3c 1091 e13c
000001e0: 007e f13b 6610 9cbe 3802 7b3d c305 5cbe
000001f0: b635 b6be db29 be3e 8a9c 14be aee1 96be
00000200: cfd6 bc3e a00d 70bc 4806 5bbd 9222 d5be
00000210: 2552 bc3e 1639 c7be c93c d6be 40d1 32bc
00000220: c007 c73c c018 713d e7c4 8abe 586f cabe
00000230: 6481 90bd a878 00be 7290 d2be 8276 97be
00000240: 5285 20be d0a0 2a3d caab 173e a34e ca3e
00000250: 7954 a83e 70db 90bc 9cf3 a6be 4733 c6be
00000260: 9a7b 1e3e a48a f5bd bcaf 0cbe dc93 c5be
00000270: 3acc bbbe 988d 8abe 88f8 57bd b183 ac3e
00000280: 03e7 64be 0031 53bb 6ccc bcbe eed4 86be
00000290: 268a d4be bf65 d13e 0810 e6bd 7c98 15be
000002a0: 00e8 7dbc b2f9 0a3e 8250 4b3e b5e7 97be
000002b0: 7814 133d d0c6 19bd 76d6 5d3e 6c1e d53d
000002c0: 5ac0 9bbe f7e2 8d3e f763 b73e e42b c13d
000002d0: dd72 8a3e 8cc0 0fbe 98ee 29be ea94 adbe
000002e0: 645f 9b3d 092b b23e e907 bd3e b90c b93e
000002f0: 400e fd3b 3444 8bbd fca3 1fbe a668 793e
00000300: 115a bb3e 1c2e ac3d 7242 633e 48d6 05bd
00000310: 23e6 67be 32c1 553e 4a0e 0e3e 68ae 593d
00000320: 44ff c7bd d291 183e 293c bebe 8e06 603e
00000330: cfa1 c73e f958 bf3e 2a1c 423e 8002 a5bb
00000340: 688e d8bd 6576 903e e63f 603e 6c6f 29be
00000350: b365 8a3e 0293 83be bae3 2a3e 2666 433e
00000360: 3a5b 7d3e 9c6d d6bd faa1 743e 829c 723e
00000370: 3b68 59be 17ab 63be f8a1 c5bd 44a1 8c3d
00000380: 448d 4ebe cfbc aabe 57b8 a4be 44ca de3d
00000390: 7e11 373e 6459 a3bd c090 64bc 1be0 7fbe
000003a0: da1c 283e 79d3 7ebe b9a6 863e 9f9a b33e
000003b0: c8e0 e1bd f4f9 cdbe 5451 fc3d 0d66 44be
000003c0: d265 763e 84e7 c2bd ae97 34be bc3d e93d
000003d0: 57d7 a93e 4fe3 bbbe 20b4 3b3c 5c61 b93d
000003e0: af01 3ebe aef0 18be 63d8 a43e c891 12bd
000003f0: 0e80 393e 27e5 3cbe 3e98 463e 795c 833e

bias f4 [16]
0.0 0.0 0.0 0.0 0.0 0.0 0.0 0.0
0.0 0.0 0.0 0.0 0.0 0.0 0.0 0.0
00000000: 0000 0000 0000 0000 0000 0000 0000 0000
00000010: 0000 0000 0000 0000 0000 0000 0000 0000
00000020: 0000 0000 0000 0000 0000 0000 0000 0000
00000030: 0000 0000 0000 0000 0000 0000 0000 0000
